test/assets/model.safetensors (safetensors, 4152 bytes, 2 tensors)

attention f4 [20, 30]
00000000: 43d2 2d3f e07d b23e e8aa c73d a897 e93e
00000010: a01e 5b3f b229 963e df19 243f ba49 ec3e
00000020: 6ac7 1e3f 3611 613f 8899 213f 9844 cf3d
00000030: 4db9 503f b957 263f f646 8b3e 7436 223f
00000040: 16c3 683f 22d4 8e3e 35e2 063f 804c 1f3f
00000050: 68e8 f73e 1911 023f d820 193f d043 3e3f
00000060: 0037 c93e 58dc 1e3f ee4f ba3e 98cf 863d
00000070: bf56 5c3f 3b2f 6a3f 641e 123e 4c4d 873e
00000080: 613d 093f f670 0a3f ed8e 093f 4434 403f
00000090: 150d 323f b075 f63d e0e2 ef3e 2348 3e3f
000000a0: 2798 0e3f 955f 263f 23d8 043f 380f 543e
000000b0: 21e0 7f3f 934a 3a3f e5f1 6f3f 03d1 513f
000000c0: 98e4 5e3f a067 d03d 1a5b f33e 5a3d 653f
000000d0: 8ab7 863e 5ac0 783f ce34 a53e e69b b63e
000000e0: d032 693d 6a33 8a3e 70ac 0f3d a599 413f
000000f0: 95a7 7b3f fe2a bc3e bc49 5e3e b80f b03d
00000100: a48e 9e3e 8708 723f 85b3 6b3f 94a7 1d3f
00000110: 104f 3b3e 20b3 7a3e b0a7 273e 8b68 343f
00000120: 40a4 533e 9ac2 e53e c824 e23e 8fc2 733f
00000130: fc6d 693f 86f5 333f 6eac 7b3f 70fa 053d
00000140: f001 013d b34a 393f a89b cf3e b290 583f
00000150: a205 a53e a4ca 603e 78de a83d a016 c13e
00000160: da3f 423f d1fb 713f 6339 453f e6eb 903e
00000170: c6da 0e3f 48ed a23e 0c41 f23e e54b 613f
00000180: 65d7 403f c086 583c d8ae 353e b493 ad3e
00000190: 4851 d03e 083c 283f 81f4 223f cefe 523f
000001a0: 1c84 5f3f 8004 043d 496e 5d3f 581a 6a3e
000001b0: 70fe f33d 1443 ae3e 2c37 203f 5454 993e
000001c0: 40b3 c53e 16bb 3b3f f521 1b3f 6413 0b3f
000001d0: ba78 643f 3a84 d93e 480e a83e 5078 ea3e
000001e0: 81d3 7b3f 633d 5c3f 123e 783f 59e3 013f
000001f0: 795b 3a3f 123e 683f a8be 7e3e 5c4b 253f
00000200: bc14 1e3e 41a8 773f cef0 363f f4a5 903e
00000210: e7d3 2b3f 00d3 fa3c 264a e43e 5125 403f
00000220: d037 553f e354 413f f0dc 0a3e a0e4 ae3e
00000230: c0e5 053d c48f cf3e bbbd 583f d07e 593d
00000240: a456 2b3f 0367 2d3f 7441 093f 9da5 5a3f
00000250: 9ba6 603f 7af8 973e 018e 433f c709 1f3f
00000260: 1ab2 d03e 44cf f13e 6464 883e b5a1 7b3f
00000270: 3f41 4b3f 00fc a13d 90d1 3e3f e491 3b3e
00000280: 80bb 8d3b d8e0 d93e 9f25 6f3f 8c75 9f3e
00000290: 943c 6a3f 838b 5a3f 418b 3f3f d8ee dd3e
000002a0: 652b 0c3f b4bd f63e b831 cc3d b3a7 6f3f
000002b0: f232 353f 8ae0 593f 11d2 0c3f 1f81 723f
000002c0: 4003 5a3d a801 d03e 3c10 7f3f 849a 263e
000002d0: e779 003f 706f 513f 0b52 1f3f a8af 803d
000002e0: 0d83 663f 8e93 683f 9e80 483f 419a 1a3f
000002f0: 7f7c 143f c08b 783e a80c 823e 11eb 0b3f
00000300: 884d 473f 2033 363d 1210 fa3e 76b0 283f
00000310: a04c d03c a770 353f 1284 b43e 48cb ee3d
00000320: 13f7 1a3f 52de d93e 3546 023f f1c0 293f
00000330: 4038 a73d ef99 523f cb22 753f a058 de3e
00000340: 782b 3e3e 346b 563f 1e38 723f 985c 013e
00000350: 4092 493e 1855 de3d a050 e53e cb9f 793f
00000360: 9343 0b3f 382f 483f c8ee 333f fc2c 203f
00000370: ca9f 7f3f 4847 3f3e 300d b63e fcee 623e
00000380: 10fc 8a3d 4280 0e3f 2aec 443f 7b60 663f
00000390: 6e27 f53e d3b5 0b3f 45a3 6a3f 7417 e93e
000003a0: f639 ad3e 8445 e23e 78bc 083e 7c70 423e
000003b0: 7047 6a3d e13c 693f 2f57 7a3f faf2 f83e
000003c0: a529 383f 59b6 213f ce10 973e 2c96 793e
000003d0: 30ca 083d e3d4 183f 1077 b23d 0285 923e
000003e0: 762c d03e 7e86 293f e0e5 6c3f c0fa 593f
000003f0: c81b 193e 0000 ed3a 0422 053f 9a15 e83e
0.6789896 0.3486166 0.09749395 0.45623517 0.85593605 0.29328686 0.64101976 0.4615
0.6202303 0.87916887 0.63124895 0.10120505 0.81532747 0.64977604 0.27202576 0.6336434
0.9092268 0.2789622 0.52688915 0.62226105 0.484195 0.5080734 0.5981574 0.74322224
0.39299774 0.6205497 0.36389107 0.06582564 0.86069864 0.9147832 0.14269406 0.2642616
0.5360928 0.54078615 0.5373371 0.7507975 0.6955121 0.12034166 0.4685278 0.7432882
0.55700916 0.64989597 0.518923 0.2070893 0.9995137 0.7277004 0.93728477 0.8195955
0.87067556 0.10176015 0.47530442 0.8954674 0.26311904 0.97168505 0.3226685 0.35665816
0.056933224 0.2699235 0.03507656 0.7562507 0.98302585 0.3675155 0.21707815 0.08596748
0.309682 0.9454426 0.920708 0.6158383 0.18291879 0.24482393 0.16372561 0.7047202
0.20668125 0.44875032 0.44168687 0.9521875 0.9118345 0.70296514 0.9830998 0.03270954
0.03149599 0.72379607 0.40548444 0.8459579 0.3223086 0.21952301 0.082455575 0.37712574
0.7587868 0.94524866 0.7704069 0.28304976 0.5580257 0.31821656 0.47315252 0.8800643
0.75328666 0.013215721 0.17742479 0.3390175 0.40687013 0.657166 0.63654333 0.8242005
0.8731096 0.032230854 0.86496407 0.22861612 0.119137645 0.34035552 0.62584186 0.2994715
0.3861332 0.73332345 0.6059869 0.5432646 0.89246714 0.42483693 0.32823396 0.45794916
0.98369604 0.8603117 0.9696971 0.5073753 0.72795826 0.9071971 0.24877417 0.64568114
0.15437597 0.9674111 0.7146119 0.28251612 0.6712021 0.03061819 0.4458782 0.7505694
0.8328829 0.7552015 0.13560843 0.34158802 0.03268981 0.40539372 0.84664506 0.053099453
0.6692908 0.6773531 0.536155 0.85408956 0.8775422 0.2968176 0.76388556 0.62124294
0.4076088 0.47228444 0.26639092 0.9829362 0.7939643 0.07909393 0.74538517 0.18317372
0.0043253303 0.42554355 0.9341678 0.3114437 0.91498685 0.8536913 0.7482186 0.43346286
0.54753715 0.48191607 0.099704206 0.93615264 0.7078086 0.85108244 0.55008036 0.94728273
0.053225756 0.40626264 0.99634147 0.1626988 0.5018601 0.81810665 0.6223456 0.06283504
0.9004372 0.9085015 0.78321254 0.6039162 0.58002466 0.2427206 0.2540028 0.5465556
0.7785268 0.04448235 0.48840386 0.6589426 0.025427163 0.7087502 0.35257012 0.116598666
0.60533255 0.4255243 0.5088838 0.6631003 0.08165026 0.82266134 0.95756215 0.4342699
0.1857127 0.8375733 0.9461688 0.12632978 0.19684696 0.10856074 0.44788074 0.9750945
0.54399985 0.7819705 0.70286226 0.6256864 0.99853194 0.18679535 0.35556936 0.22161478
0.06786358 0.55664456 0.7692286 0.8999097 0.47881645 0.54574317 0.9165538 0.45525706
0.33833283 0.4419366 0.13353145 0.18988222 0.057197034 0.9110852 0.9778928 0.48622876
0.71938545 0.63168865 0.29505008 0.24373692 0.033395946 0.5969984 0.087141156 0.28617102
0.4065892 0.66220844 0.9253826 0.8514824 0.14952004 0.0018081665 0.5200503 0.4532898

embedding f4 [20, 20]
00000000: 8196 703f 8cc8 8e3e adca 1d3f 2aad 7f3f
00000010: 3431 293e 2da0 493f bd34 6f3f 882b 7a3e
00000020: ddad 7f3f 2078 2f3f 7c3f 323f db9b 5a3f
00000030: 58ba 8c3e 19c8 353f 021b 1c3f 0434 c03e
00000040: 7027 e93e b08b 063e 4e36 8c3e 768b 583f
00000050: 28ce 0a3e 3eac 3c3f 8d56 383f 22a2 853e
00000060: ee85 bd3e c7eb 5c3f 06c2 be3e 652d 353f
00000070: 335c 343f ef31 563f 6402 363e e4ba ba3e
00000080: d15b 4f3f 98f7 6c3f 4cba a03e 5c47 b13e
00000090: 0024 ce3a 7028 8c3e ad30 1a3f d119 463f
000000a0: 0d7b 103f 43b6 613f 80d1 ea3b 6c74 4d3f
000000b0: 27e3 3e3f aca1 4a3e 1588 243f 364c 663f
000000c0: 7fd8 663f caa5 163f 4600 ba3e e4fc 173e
000000d0: f06f 223f bca9 643f 5ce6 d03e 328a 653f
000000e0: 500b 303e 1dc6 363f a1fb 103f fcb5 523e
000000f0: 90db 783d dcf9 633e 2cdb d43e 600f 3b3d
00000100: 9079 a13e 46a0 3c3f a817 d43e bc9b d83e
00000110: 1eec 4c3f be59 2f3f 7ce2 1f3e 80f4 683e
00000120: 72f5 1f3f 0064 803b 6826 f13e 9012 4a3f
00000130: b087 6f3e 848b 243e 09c5 473f 0cd3 6e3f
00000140: 404b c93e 7454 6d3f ac67 c03e 4de3 633f
00000150: 041d 793f 103b f33e fac6 5c3f c8d6 d03e
00000160: 9b16 623f 0213 e63e fad5 913e 2ded 503f
00000170: 3acb 123f d29c a43e 4e84 993e 83c6 343f
00000180: 3505 153f d851 573e 118d 123f acee 593e
00000190: 101b dd3e a4e1 753f 40fa 3b3f 4882 cd3e
000001a0: bf55 1d3f 7cbd a73e 98e4 e53e 8a82 2b3f
000001b0: c4a4 713e 1426 373e c4f7 ad3e 80b4 4b3d
000001c0: 0a1e 853e cc61 8b3e 2013 513e 9c2e 7a3f
000001d0: 043d 0a3f 9076 4b3e 8df3 7d3f 649f ef3e
000001e0: dfdd 643f 8a10 743f cf1c 4e3f f0b1 113f
000001f0: 85fc 133f c6f6 f93e b361 563f 8aa9 a13e
00000200: 927c 453f f876 323f 27ae 4f3f 864c 8e3e
00000210: c60e 143f ec24 363f 2aec 273f f41b 463f
00000220: 1952 063f 8753 363f 28dc 0b3e 10e0 4a3f
00000230: 2f71 193f 587c af3e a0e8 2f3e 4062 6f3d
00000240: 885d d33e 02da be3e 88bb 0c3f 5050 cf3e
00000250: 385e 3b3e febf 213f 0cb0 283f b05f 753d
00000260: 957a 7d3f 0bf1 1f3f 6297 423f d021 f43d
00000270: 3d13 1e3f bc01 2c3f 6cf7 363e 6e28 383f
00000280: f83a 653f ca10 ad3e 113c 673f 08ee cc3e
00000290: dd51 413f 626d a63e a72f 4b3f 8c4b 343e
000002a0: 7f87 223f 807c 513e be63 433f d176 4f3f
000002b0: 80d4 893e aa7d 503f b2d3 f93e f867 de3d
000002c0: d785 6b3f 5c24 1b3e 78d9 953e 1cb9 f73e
000002d0: 77cb 1c3f 8701 193f f853 053f fa32 ff3e
000002e0: a0ca ea3d 642f 663f 0115 143f 9cc1 313e
000002f0: 2fd1 0f3f 000f 023c 479b 4d3f c9f0 1f3f
00000300: 44e4 803e c8e8 df3e edf4 643f 5354 3a3f
00000310: b735 753f a7e0 233f e892 fc3e 6170 633f
00000320: 2b2d 143f 380d 273e 60b5 de3e ed7b 083f
00000330: 40ea ae3d 3e1c a33e 4717 593f 7dd6 083f
00000340: 00ff a43e 8057 7a3f 3465 303f da6c 993e
00000350: 942e ea3e 90ef fb3d 8318 223f 408c 1d3f
00000360: 80d5 b03d 3f0b 703f 7885 fd3d 581c 633f
00000370: f4bd c93e e623 343f 83bc 1c3f d9fe 103f
00000380: 77a7 123f 042e 0c3f 8e7d 423f 9b24 663f
00000390: 2ed8 bf3e 90d6 2e3d dc7d 773e bdeb 073f
000003a0: 1e53 693f 005a 7f3c a582 713f 6168 6b3f
000003b0: b078 fb3e db15 7d3f 4062 c63c ea1b 773f
000003c0: 9aef 293f 29ed 2c3f ce2b 333f 0020 463f
000003d0: 0e69 0e3f ac63 133f dc49 433f a873 dc3e
000003e0: f0cb 023e f274 e33e 10d3 3e3e ca45 cc3e
000003f0: 6da5 133f 065e e33e c7fd 1b3f a89d 6f3f
0.9397965 0.2788738 0.61637384 0.998736 0.16522676 0.78760034 0.9343985 0.24430668
0.9987467 0.6854267 0.6962812 0.85394067 0.2748592 0.7100845 0.6097871 0.37539685
0.455379 0.13139224 0.2738518 0.845878 0.13555205 0.7370032 0.72007066 0.2610026
0.37016243 0.8629727 0.37257403 0.7077239 0.70453185 0.8366994 0.1777435 0.3647071
0.80999476 0.925653 0.31392133 0.34624755 0.0015727282 0.273746 0.60230523 0.7738314
0.5643776 0.88168734 0.0071660876 0.8025577 0.74565357 0.19788235 0.64270145 0.8996004
0.90174097 0.58846724 0.36328334 0.14842564 0.63452053 0.89321494 0.4080075 0.89663994
0.17191815 0.71396047 0.56633955 0.20577234 0.060756266 0.22263283 0.41573465 0.04566896
0.31538057 0.7368206 0.41424298 0.42306316 0.80047786 0.6849631 0.1561374 0.2274952
0.62483895 0.003918171 0.47099614 0.78934574 0.23391604 0.16068846 0.78035027 0.9329078
0.39315224 0.9270699 0.37579095 0.8901871 0.973099 0.47506 0.86241114 0.40788865
0.88315743 0.44936377 0.28483564 0.816119 0.5734135 0.32150894 0.29983753 0.70615405
0.5821107 0.21027315 0.572465 0.21282452 0.4318471 0.96047425 0.73428726 0.4013846
0.61458963 0.32761753 0.44900966 0.6699606 0.2359801 0.1788562 0.33978093 0.049732685
0.2599948 0.2722305 0.20417452 0.9772737 0.5399935 0.19869447 0.99199754 0.46801293
0.8940105 0.95337737 0.8051271 0.56912136 0.5780719 0.48821086 0.8374283 0.3157466
0.77143204 0.6971278 0.8112511 0.27792758 0.5783504 0.7115009 0.6559473 0.77386403
0.5246902 0.712212 0.13658202 0.7924814 0.5993833 0.34274554 0.17178583 0.058443308
0.41282296 0.37275702 0.5497365 0.4049096 0.1829766 0.6318358 0.65893626 0.059905708
0.9901517 0.6247718 0.7601224 0.11920512 0.61748105 0.67190146 0.17867821 0.7193669
0.89543104 0.33801872 0.9032603 0.40025353 0.7551554 0.32505327 0.79369587 0.17606944
0.63488 0.20457649 0.7632407 0.81040674 0.26919937 0.8144175 0.48794323 0.10859674
0.920011 0.15150589 0.29267478 0.48383415 0.6124796 0.59767956 0.5208125 0.4984358
0.11464429 0.8991606 0.5784455 0.17359012 0.56178564 0.007938147 0.8031506 0.62476784
0.25174153 0.43732285 0.8943623 0.7278492 0.9578509 0.6401467 0.4933083 0.8884335
0.5788142 0.16313636 0.43497753 0.53314096 0.085407734 0.31857485 0.84801143 0.53452283
0.322258 0.97789764 0.68904424 0.2996586 0.4573866 0.12301552 0.6331865 0.6154213
0.08634472 0.9376716 0.12378973 0.88715124 0.39402735 0.70367277 0.61225146 0.56638867
0.5728678 0.54757714 0.7597283 0.89899606 0.3746962 0.04268509 0.24169105 0.53094083
0.9114245 0.0155854225 0.9433997 0.91956145 0.49115515 0.98861474 0.024216771 0.9652697
0.6638123 0.6754938 0.69988716 0.7739258 0.5562905 0.5757396 0.76284575 0.4305699
0.12773108 0.4442516 0.18635201 0.39896995 0.57674295 0.44407672 0.6093411 0.9359994
